results/vae/models/13dim.pth (torch, 942751 bytes, 14 tensors)

encoding_layers.0.weight f4 [256, 180]
000000 40 43 c7 bc 6c f8 3b be f8 19 bf 3c ac 76 8f 3c
       -0.02432406 -0.18356484 0.023327813 0.017512642
000010 6c 21 be bd 2e 3e 12 3d a3 95 77 3d e9 e1 23 bd
       -0.092837185 0.03570383 0.06044544 -0.040010367
000020 e7 0b f5 bc c6 d6 4a bc 3a c0 2e bd 95 bd 41 be
       -0.029912902 -0.012380308 -0.04266379 -0.18919976
000030 cb c3 7b 3d b0 55 5e bd 5d 2c eb bd 37 e8 bd 3d
       0.06146602 -0.054280937 -0.11483071 0.09272807
000040 85 c2 df bc 70 4c ff bc b9 94 20 bd ea df ad bd
       -0.027314434 -0.031164378 -0.039204333 -0.08489974
000050 c6 f9 42 bd 2c 8e c7 bc d8 51 c7 3d cc 63 1e bd
       -0.047601484 -0.024359785 0.09732407 -0.038669392
000060 c2 7a ca 3a 46 6f 72 3d fb db d7 3d ba 60 b3 bc
       0.0015447962 0.05918815 0.10540005 -0.021896709
000070 75 83 5f 3c eb 76 19 bb c1 dc e0 bc da ee ae 3c
       0.013642182 -0.0023416828 -0.027449014 0.021354128
000080 ac 6c 32 3d 51 53 48 bd ea 7e 41 3d 34 a7 ba 3d
       0.04356067 -0.04890758 0.047240175 0.09113923
000090 92 d8 77 bb 21 6d 5f bb 78 35 94 bd e3 8a 89 bd
       -0.0037818295 -0.0034092146 -0.07236761 -0.06715944
0000a0 6d 3a 4b bd 14 e4 1e bd 84 20 8a 3d 1a c1 5b 3d
       -0.049616266 -0.03879173 0.06744483 0.053650953
0000b0 5b 3b 4b 3c 1e 25 a8 bc 82 33 cf b9 11 7f 0a 3d
       0.012404288 -0.020525511 -0.00039520493 0.033812586
0000c0 79 aa 47 3d 63 2f 55 b9 da c1 e1 bc 90 b5 20 3d
       0.04874656 -0.00020330916 -0.027558256 0.03923565
0000d0 aa 24 b1 bd 27 d2 92 3c f5 9f 31 3d ae 9c 6e 3d
       -0.08649571 0.017922474 0.043365438 0.05825489
0000e0 6f f1 79 3d a5 c0 4b bc 07 02 19 3b 6a 9c e6 bc
       0.061021265 -0.012436067 0.0023347156 -0.028150756
0000f0 f7 1f 3e bc 35 1d 45 3d 9f be 8a bd 72 9c f8 bc
       -0.011604301 0.048123557 -0.06774639 -0.030348036
000100 39 99 c4 ba 3f 0b 00 3e b0 37 7b bd 00 79 bc bd
       -0.0014999277 0.1250429 -0.061332405 -0.092027664
000110 5d 31 8d 3d 05 ad b0 38 c1 0b 33 bd 70 e7 71 3b
       0.06894181 8.4245614e-05 -0.04371238 0.003691163
000120 55 8c 04 3d 06 92 1f 3c e9 6b 89 3d 9f a6 b7 3c
       0.032360394 0.009739405 0.06710035 0.022418318
000130 6d e9 84 bd 9f e7 72 bc 59 f0 0d 3c 66 db 50 bd
       -0.06489835 -0.014825731 0.00866326 -0.050990485
000140 31 44 49 3d 1c 7f 84 ba db 2a 9c bd b9 1c 89 3d
       0.049137298 -0.0010108682 -0.076253615 0.066949315
000150 14 ee e4 bb 97 e7 df 3b 7e 47 16 3d ae 50 df bc
       -0.006986389 0.0068330276 0.036689274 -0.02726015
000160 dc b1 13 3e 64 b7 73 3d 94 0a 8e 3d cd 51 c1 bb
       0.14423317 0.059501067 0.06935611 -0.005899644
000170 30 3d e9 3c 76 88 97 bc 79 71 18 3d 59 29 8a 3d
       0.02847156 -0.018497687 0.03721759 0.06746168
000180 8e 13 8a 3d 6a 9f 2c 3d f4 b2 dc 3d 2c 65 06 3d
       0.06742011 0.042144217 0.1077632 0.03281133
000190 f8 f5 44 bd 55 30 0d 3e 70 e8 7b 3c ff b7 9d 3d
       -0.048086137 0.13787968 0.015375242 0.0770111
0001a0 64 bd f6 3c 3f 4a e6 3b 53 b6 c0 3d 80 40 c6 3d
       0.030119605 0.007027894 0.094097756 0.09680271
0001b0 a8 b7 8a 3d 88 44 26 3b 6e 77 2c bb 70 0b 51 bc
       0.06773311 0.0025370438 -0.0026316303 -0.012759075
0001c0 3e 25 4e 3d a5 9e e7 bd 37 4f 4a bd 91 36 f1 bd
       0.050328486 -0.11309556 -0.04939195 -0.11777986
0001d0 ee af 90 3d ab 8f 29 3d 67 f8 45 3d 05 71 22 3e
       0.07064806 0.041396778 0.048332598 0.15863426
0001e0 d4 7f 28 be 8f 1a c6 bd 1f ad 12 3e 96 38 d5 bd
       -0.16455013 -0.096730344 0.14323853 -0.104111835
0001f0 2b 83 6f 3d a3 d8 4a bd 1a d4 37 bd 18 ef 60 bd
       0.0584747 -0.049523007 -0.04488001 -0.054915518
000200 29 24 26 3d 0e 7a 3e bd 77 e1 5a bd 4d 84 67 3d
       0.04056183 -0.04650312 -0.053437676 0.056522656
000210 42 05 f4 bd 0d c4 3c bb 1f b6 48 bd 97 e1 9c 3d
       -0.11915065 -0.0028803379 -0.04900181 0.07660215
000220 7f 29 75 3d 88 ec ae bd c4 1d 84 bc e0 fa 9c 3d
       0.059854027 -0.085412085 -0.016127475 0.07665038
000230 7b 39 89 bc 1f 3f 30 bd 60 5e 6a bd 10 c3 8d 3d
       -0.016751042 -0.043028947 -0.05721891 0.06921971
000240 7d 22 90 3d 0f 42 81 bc f5 28 30 bd 05 d2 c4 3d
       0.07037828 -0.01577857 -0.04300781 0.096103705
000250 4e 8b 92 3d 5e 67 e1 3c 0d 04 1e be 6a bf 01 bc
       0.071554765 0.02751511 -0.15431233 -0.007919172
000260 89 28 59 3d a5 24 84 bc 46 b5 7d bd 36 74 93 3d
       0.053017173 -0.016130755 -0.061940454 0.071999
000270 ab 55 01 3e 42 c2 37 3d ec 10 85 3c 45 ec 10 3e
       0.12630336 0.044862993 0.01624342 0.1415263
000280 cd dc a2 3c a4 24 3e ba 09 43 ce bd 7d f7 d4 3d
       0.019880677 -0.00072533847 -0.1007138 0.10398767
000290 88 3c cf 3c cb 5f b0 bd bd 3c 8c bd be 19 89 bd
       0.025297418 -0.08612021 -0.068475224 -0.06694363
0002a0 8a 77 d8 bc 63 a1 0c 3e a4 a6 b4 bd 7a a8 ac bb
       -0.026424188 0.13733439 -0.08820847 -0.0052691074
0002b0 7c 96 a2 bd ee ab ef 3c 29 a6 81 3d e7 74 56 bd
       -0.07938859 0.029256787 0.06330521 -0.05235758
0002c0 33 cb d7 3d 1b ae d9 bb 57 bd 2f bd c6 f2 fc 3d
       0.10536804 -0.0066430694 -0.042905178 0.12350993
0002d0 18 b3 8a 3d a0 2f 86 3d d9 61 a0 3c b4 2c 17 3d
       0.06772441 0.065520525 0.019577907 0.036907867
0002e0 fa 32 5e 3d d1 a2 87 bc f6 a1 e8 bd 4c 43 64 3d
       0.054247834 -0.01655713 -0.113590166 0.05572824
0002f0 43 3c 43 3d fe c2 91 3b 2d 31 62 bd 7d 7f c9 bd
       0.047664892 0.0044482937 -0.05522268 -0.098387696
000300 0a ee 21 3e 3f b4 96 3d 52 c7 26 3d 6c 9d b3 bc
       0.15813461 0.07358598 0.04071743 -0.02192565
000310 84 4c b3 bb da 22 dd bd 5d ee 08 3d be 1c f1 3d
       -0.005471768 -0.10797663 0.033430446 0.1177306
000320 16 6d b3 bd 3c a4 cb bc 7f 4e e7 bb 04 97 cd 3c
       -0.08761041 -0.024858586 -0.007058918 0.025096424
000330 d0 f7 50 bd 70 75 75 bd 31 d5 cf bd a8 0c d2 3b
       -0.051017582 -0.05992645 -0.10148085 0.0064102
000340 aa ec 17 bd c8 49 6b bd d1 d8 66 bd fd 50 f1 3c
       -0.037090935 -0.05744341 -0.056359116 0.029457564
000350 b0 f7 55 3d 06 08 a9 3c 90 12 de bb b5 cf 8f 3d
       0.052238166 0.020633709 -0.006777115 0.07022039
000360 c9 0b 98 3c ce fe 52 3a 4f 09 32 bb 0b c7 72 3d
       0.018560307 0.0008048833 -0.0027166193 0.059271853
000370 7e 6c 29 bd 6a ef 1f 3d e2 03 4a 3d 34 fa 13 bc
       -0.04136323 0.039046682 0.04932011 -0.009031821
000380 3f 05 5e bd c0 57 a2 bc 93 fb 38 3d 31 32 14 3b
       -0.05420422 -0.019817233 0.045161795 0.0022612924
000390 1d 45 a8 3d d7 19 82 bd b8 dc a9 bd fb 82 02 bd
       0.08216307 -0.06352585 -0.08294052 -0.031863194
0003a0 d2 3c 55 3c 31 49 9a 3b 05 82 59 3d 05 ed f2 bc
       0.013014989 0.004708432 0.053102512 -0.029654035
0003b0 4e 89 f5 bc b7 83 5f 3d 02 5b b8 3d 41 98 bb 3c
       -0.029972699 0.054568972 0.09001733 0.022899749
0003c0 7b 5e bb bc e6 7a 41 bd 29 bf b5 bd 6a f8 9a 3d
       -0.0228722 -0.047236346 -0.088743515 0.075669125
0003d0 27 5a f3 3d ae 85 cd bc bb dd 2f 3e 63 d8 eb bc
       0.118824296 -0.025088158 0.17174427 -0.028789705
0003e0 84 58 5e 3c 8a 20 8c 3d 16 98 80 bd d8 13 64 bc
       0.013570908 0.06842144 -0.06279008 -0.013920747
0003f0 2c c4 47 bd 64 a9 1e bc 70 a9 91 bc 7d 1f 8d 3d
       -0.04877107 -0.009683941 -0.01778099 0.068907715

encoding_layers.0.bias f4 [256]
000000 20 dd 02 3b 7e 88 28 bc ee e6 5f bc c4 89 1f 3c
       0.0019968227 -0.0102864485 -0.013665898 0.009737436
000010 83 9e a8 3c 9a 49 5c 3b 36 c4 2e bc 53 d8 e9 3b
       0.020583397 0.0033613206 -0.0106668975 0.0071363836
000020 3b 0f d3 ba 7e 1d 95 bc 9f 7b 21 bc f6 4f 06 3c
       -0.0016102561 -0.01820254 -0.009856134 0.008197775
000030 ae d7 10 bd ee 98 74 3a 4b fe eb bb 1d a8 26 3c
       -0.03536194 0.00093306496 -0.007201945 0.010171917
000040 fb 98 26 3c 07 31 68 3a 3d b9 02 ba 4b bd 91 bc
       0.010168309 0.00088574033 -0.0004986709 -0.017790457
000050 71 f0 9b ba dc 83 54 3c 0d c9 4f bb 08 d2 e2 bb
       -0.0011897219 0.012970891 -0.003170553 -0.0069220103
000060 f7 17 3f bb f0 24 44 3b 9a 11 b5 3a 21 76 14 bd
       -0.0029158571 0.0029929243 0.001381445 -0.03624547
000070 34 19 83 bc d2 3c 8f bc 11 41 52 bc 5c f6 db 3b
       -0.016003229 -0.017485056 -0.012832896 0.006712718
000080 a2 c9 a4 bc e6 ab 18 bc d0 6b ea bb 09 27 bf 3a
       -0.020115677 -0.0093183275 -0.0071539655 0.0014583777
000090 46 ca 7a 39 89 0c 2a 3a 29 7b ec 3b 31 dc 48 bc
       0.0002391721 0.0006486853 0.0072168303 -0.012259529
0000a0 49 06 35 bc 82 68 2a bb e4 85 6f bc 12 c1 56 bc
       -0.011048862 -0.0026002233 -0.014619324 -0.013107555
0000b0 cd 88 c4 3b 7e 54 4e bc 40 c3 1c bc af 2d 84 bb
       0.0059977532 -0.012593387 -0.009568036 -0.004033766
0000c0 91 e2 a7 bb c8 d2 8a 3a 76 32 9d 3b be 8d c0 3b
       -0.0051234444 0.0010591382 0.004797275 0.005876272
0000d0 fa 47 14 3c 09 35 f0 3b ba 76 b2 bc 16 d7 bc bb
       0.009050364 0.007330541 -0.021785129 -0.005762945
0000e0 ca 1d 9c 3c af 91 02 bc 11 53 d0 3b 75 7c e4 3b
       0.019057173 -0.007969304 0.0063575585 0.0069728442
0000f0 df 53 66 bc 7d 63 be 3b 50 3f 7b bc 56 5e 92 3c
       -0.014058082 0.0058102 -0.015334919 0.017867249
000100 06 c6 91 bc ee 27 b7 bb 61 22 a6 bc b4 5d 94 bc
       -0.01779462 -0.005589477 -0.020280065 -0.018111087
000110 f5 60 d8 bb b1 c9 7f 3c 18 94 97 3b 51 11 b6 bc
       -0.006603355 0.015612052 0.0046258084 -0.022225054
000120 ec 3b 04 3b 65 cd d9 3b 93 0e aa 3b 28 50 00 b8
       0.0020177318 0.0066467994 0.0051897257 -3.059223e-05
000130 1e 49 08 bd 31 7a 6a 3b 86 f5 01 bb 20 55 b2 3c
       -0.033272855 0.0035778398 -0.0019830181 0.021769106
000140 ea 51 56 3b 1f 8a 06 ba c3 9a 1e bb eb 99 8c bc
       0.0032702633 -0.0005132276 -0.0024201132 -0.017163238
000150 8e da 38 bc de f9 69 3c d1 a8 8f bb 77 62 fd bc
       -0.011282576 0.014280764 -0.004384138 -0.03093074
000160 3e 3a 44 3c d6 4b ea 3b d6 c1 f7 bc 8e aa d8 bc
       0.011976777 0.0071501536 -0.030243795 -0.026448514
000170 b9 e1 32 bc 57 be 12 3c a9 99 0d 3b bf 1f d9 bb
       -0.010918074 0.008956513 0.0021606481 -0.006626099
000180 ca ae 26 3c 23 f7 42 bc c8 68 e2 bb 8a ae f6 3b
       0.010173509 -0.011899742 -0.0069094636 0.007528131
000190 2a e8 3e 3c ff c3 a5 bb 09 0c 9c bb 68 4c 26 3c
       0.011652032 -0.005058765 -0.004762177 0.010150053
0001a0 dc 8c 86 3c ef 63 5f 3c 58 2a 9a 39 1b dd dd 3a
       0.016424589 0.013634666 0.00029404717 0.0016926856
0001b0 86 8a c5 ba a2 24 da bb c2 07 3b bb af cf 8f bb
       -0.001507119 -0.006657199 -0.002853856 -0.0043887715
0001c0 c4 96 20 b9 bd 2c 24 3b 2c 92 ad bc 8c 6b ee 3b
       -0.00015314954 0.002505108 -0.021187864 0.007276004
0001d0 1d 03 9b ba 4e 26 68 bb 6b 30 01 bc dd ec 46 3c
       -0.0011826489 -0.0035423222 -0.007885079 0.012141434
0001e0 ba 01 a6 3b fc 9b 03 bb 84 93 9e 3b 2c 6f a6 3a
       0.005066124 -0.0020081988 0.0048393626 0.0012697927
0001f0 75 b8 7a bc 92 fa 2e 3c 8f f2 c3 bc e4 55 c2 ba
       -0.015302767 0.010679858 -0.023919372 -0.0014826623
000200 de ee 81 bc ed 7d af 3b e3 3b 27 bb 67 b1 85 3b
       -0.015860971 0.0053555877 -0.0025517873 0.004079986
000210 06 b7 bb 3b 14 9b 30 bc 21 30 27 3b 27 f1 8a 3c
       0.005728605 -0.010779161 0.0025510865 0.016960694
000220 f6 c4 8d bc 5f be f7 bb 12 cc 4d 3c eb 1b 01 3a
       -0.017305832 -0.007560536 0.012560861 0.00049251196
000230 2e 33 57 3c a8 07 9a bb 4c 2d fe 3b c6 e9 06 3b
       0.013134761 -0.0047006197 0.0077568647 0.0020586117
000240 ea 8c 30 bb 0a 72 06 3b db a7 84 bb 38 4a a6 3c
       -0.002693946 0.002051475 -0.0040483302 0.020299062
000250 9a 73 c3 3a 96 d0 fa 3b 81 f5 ac 3c ea 49 49 bb
       0.0014911771 0.00765426 0.02111316 -0.0030714222
000260 4b 20 8b bc 3f 27 af bb 24 94 61 3c 2e 6a 2c bc
       -0.016983172 -0.0053452547 0.01376823 -0.010523362
000270 55 a9 56 bc 06 f4 b4 3b f0 85 bd 3a 10 26 10 3c
       -0.013101895 0.005522254 0.0014459472 0.008798137
000280 24 c7 71 bc 92 98 c3 38 9e 23 71 3b ee f4 b7 3b
       -0.0147569515 9.326743e-05 0.003679491 0.0056139147
000290 72 1c 54 3a f5 95 74 b9 79 55 72 bc dc 0e ab bb
       0.0008091397 -0.00023325517 -0.014790886 -0.0052202772
0002a0 1d a1 4c bb 39 cf 14 b9 03 53 b8 bb 3b 5d 27 bc
       -0.003122396 -0.00014191576 -0.00562513 -0.010215099
0002b0 6e 9d ad 3c 02 01 25 bc 1b 2c 26 ba 89 d6 4d 3c
       0.021193232 -0.010071041 -0.00063389697 0.012563356
0002c0 04 7a 84 bc 6c 8d b4 3b c5 9c 94 3b 66 2d 3c 3b
       -0.016171463 0.005510023 0.00453529 0.0028713583
0002d0 d7 11 66 3c 7a ea e3 bc 92 0b f4 bc 5e e8 c8 b9
       0.014042339 -0.027821768 -0.029790673 -0.000383201
0002e0 a6 10 22 3b fd 98 99 3b d8 78 22 b9 d9 14 ee 3c
       0.0024729162 0.004687427 -0.00015494542 0.029062675
0002f0 d8 88 4d bc 0a 2b 2a 3b fe f4 d4 3b ad 44 45 3b
       -0.012544833 0.0025965595 0.006498932 0.0030100748
000300 d4 9d 0f bc 11 d9 b0 39 8d 76 ab bb de b7 90 3c
       -0.0087656565 0.00033731063 -0.005232638 0.0176658
000310 91 20 4e 3a 33 ea b4 bc 0e 60 ff ba d0 34 ef 3b
       0.0007863129 -0.022084331 -0.0019483583 0.007299997
000320 b4 63 3f bc 76 d1 94 bb 03 fc fb 3b 86 b6 5a 3c
       -0.011681486 -0.0045415713 0.0076899542 0.013349181
000330 25 c8 95 bc fe e3 12 3b 79 c5 50 3c 82 1d cf bc
       -0.018283913 0.0022413726 0.012742394 -0.025282625
000340 37 77 43 bc fc 93 07 bc 39 be a7 3b 3f 6d 0e bc
       -0.0119302785 -0.008275028 0.005119112 -0.0086930385
000350 de 08 62 3b 97 61 c6 3a 5a bb c8 bc 03 63 ed 3a
       0.0034490149 0.0015135285 -0.024503399 0.0018111173
000360 45 d3 36 3c b2 b4 8b 3a 73 37 8d 3a 0e 69 74 bc
       0.011158769 0.001065871 0.0010773971 -0.014917625
000370 2b bb 22 bc 36 5c a5 ba 2a 00 83 ba 25 cc 08 bc
       -0.00993232 -0.0012615982 -0.0009994556 -0.008349453
000380 cb ba 43 bc d9 b5 4d 3c 57 8a c2 bb c9 ce 37 bb
       -0.01194639 0.012555563 -0.0059369016 -0.0028046838
000390 e9 72 01 3c 38 fa 69 bc 03 82 1f bc 0e 80 b6 bb
       0.007900932 -0.014280848 -0.009735587 -0.0055694645
0003a0 a8 17 64 bc 30 0d 2b bb 46 b1 20 bd da 5b 0b bb
       -0.013921656 -0.002610039 -0.03923156 -0.0021264465
0003b0 67 93 00 3b 58 54 29 3c d3 91 5c 3c c6 53 e5 bb
       0.0019619109 0.0103350505 0.013462502 -0.006998512
0003c0 29 4b 52 3c f9 a0 4b 3b f0 96 94 3a 70 4e 9e 3b
       0.012835302 0.003107129 0.0011336487 0.004831128
0003d0 dc 51 18 bc fc 32 eb 3b 07 61 11 bc b1 0d 9f 38
       -0.009296861 0.0071777087 -0.008873231 7.584261e-05
0003e0 5c 4b 31 bb b7 69 99 3c 99 44 e8 3a 43 dd 19 3c
       -0.0027052974 0.018727167 0.0017720639 0.009391132
0003f0 6b 06 10 ba 4d 94 96 bc 3d 0f ef ba 1a a0 9f 3b
       -0.00054941204 -0.018381262 -0.0018238794 0.0048713805

encoding_layers.1.weight f4 [256, 256]
000000 70 94 34 3c 31 12 8e bc da 14 55 3d 8b c6 b2 3c
       0.011021718 -0.017342659 0.05202184 0.021823188
000010 ee d7 cc 3c 4b ee 36 3e 9c 6f d6 3d 90 c7 ef 3c
       0.025005307 0.17864339 0.104705065 0.029269964
000020 45 eb 0e bc 0f 27 5f bc c3 3e a8 3d 9f ee 89 bd
       -0.008723085 -0.013620152 0.08215096 -0.067349665
000030 c4 c5 1a 3d d0 a2 8b bc 35 b7 2f bd bd 22 92 3c
       0.03778626 -0.017045408 -0.04289933 0.01783883
000040 a4 1f 65 3c d9 8f 83 3c 63 79 9f bd 40 a8 eb bd
       0.0139845945 0.016059803 -0.077868246 -0.115067005
000050 71 ff 6c 3d fe 82 e0 bd fc a4 ea bd f7 74 91 bd
       0.057860795 -0.10962485 -0.114572495 -0.071023874
000060 a9 ab 01 be ad 23 af bc ca d6 c8 bd 43 24 f8 bc
       -0.1266314 -0.021379316 -0.09806593 -0.030290728
000070 95 f9 b4 3c be 66 68 bc 5f 99 a5 bc 44 00 88 bd
       0.022091666 -0.014184652 -0.020214735 -0.06640676
000080 cb 70 eb 3d 94 9d c3 3d 49 8f c4 bd af db 74 3b
       0.11496123 0.0955154 -0.09597642 0.0037362387
000090 1d ff 54 3d 9e 34 73 3d 35 65 60 bd 67 86 fe bc
       0.052001107 0.05937635 -0.05478402 -0.031069947
0000a0 44 fc 5a bd ea 45 97 3d 55 16 14 3d 9c 6e 29 bc
       -0.053463235 0.07386382 0.03615411 -0.010341313
0000b0 dc 53 bf 3c 8b 17 59 3c d7 89 e0 bc e6 27 d7 3d
       0.023355417 0.013250242 -0.027409477 0.10505657
0000c0 3f 4b 4e bd 33 eb 06 3b a9 c1 04 3d 58 0e bd bc
       -0.05036473 0.0020586967 0.03241125 -0.023078129
0000d0 e5 86 fb bd 7e 91 2a bd a3 a7 c8 bd f0 b6 2d 3c
       -0.122815885 -0.04164266 -0.09797599 0.010602698
0000e0 9c 1f ed bd b6 3f cc bc 89 e1 2b 3b f4 96 07 3e
       -0.11578295 -0.024932723 0.0026226959 0.13241178
0000f0 9d 43 9c bd 67 39 33 3d 37 45 b7 bd c8 ed 20 3d
       -0.07630084 0.043755915 -0.089487486 0.039289266
000100 60 d2 56 bd 9c 1c 9b bc 21 30 9e bd f2 83 02 bd
       -0.052446723 -0.01893454 -0.077240236 -0.031864114
000110 87 6d 07 bc 48 a3 32 3b 91 43 44 bc 2b a9 c1 3d
       -0.008265859 0.0027257968 -0.011979 0.09456094
000120 f3 7d f3 3d 80 94 7d bd 24 05 9b bc e9 3e 31 3d
       0.11889257 -0.0619092 -0.01892335 0.043272886
000130 32 1e 77 3c bf 23 86 bc a8 39 4b 3c aa 23 0c bd
       0.015082883 -0.016374467 0.012403883 -0.0342137
000140 44 f7 06 be 52 f9 6f ba 10 2b 07 bd 90 38 4f 3d
       -0.13180262 -0.0009154278 -0.033000052 0.05059105
000150 fb 12 1e 3e 80 07 61 bd c4 71 bd 3d 07 c9 02 be
       0.15436928 -0.054938793 0.09250215 -0.12771998
000160 4d 75 f6 3c fe a0 0f 3c 54 96 00 bd de 75 6b 3d
       0.03008523 0.008766411 -0.031393364 0.057485454
000170 ae f6 5a bd 5a 47 2c 3d 6c 44 78 3d 5b fd 2e 3d
       -0.05345791 0.042060234 0.060612127 0.042722087
000180 17 b1 d0 bc 21 9f 30 bc 8e 45 c9 bc a6 25 c9 3d
       -0.025475068 -0.010780127 -0.0245693 0.09821634
000190 0f 77 5f 3d ed 65 d1 bc c4 84 7a 3d a3 84 62 bd
       0.054556902 -0.025561297 0.06116177 -0.055302273
0001a0 76 00 85 bc 5e b9 b6 3c 78 0d d1 3d 04 fa d1 bd
       -0.016235571 0.022305187 0.10207647 -0.10252765
0001b0 c0 ef c6 bc 5b 2f 7e 3d 97 48 07 bd eb 53 8a 3c
       -0.024284244 0.06205688 -0.03302821 0.016885718
0001c0 f5 d4 07 3e 75 86 e2 3d 5e 4f 2d bd 2f 3c 14 3e
       0.1326483 0.11060802 -0.04231202 0.14476083
0001d0 3b a9 a5 bc 3b be e9 3d 1f 6c 01 bd 68 f0 24 3d
       -0.020222297 0.11413237 -0.031597253 0.04026833
0001e0 9d 7f ec 3c 89 34 16 3e 99 9d 84 bc f9 9e 38 3d
       0.028869445 0.14668478 -0.01618843 0.045073483
0001f0 98 a9 26 bb 45 2e a8 3d e7 13 6c 3d 15 b1 ee bb
       -0.0025430676 0.0821195 0.057636168 -0.0072842934
000200 ed 5b d6 bb e8 0d a6 3d 97 6b 77 bc 98 da 84 bd
       -0.00654172 0.08108121 -0.015101335 -0.06487006
000210 ff df 08 be 56 1f 2e bd ec b9 2f 3d 5a e2 3d bd
       -0.13366698 -0.042510353 0.04290192 -0.046358444
000220 33 08 08 3e 48 56 8e bc 54 a7 54 bc db 4d 07 3d
       0.13284378 -0.017375126 -0.012979347 0.033033233
000230 7d fa 8b bc e1 21 a1 bc 0c 63 b1 bd ae 7d 14 3d
       -0.017087216 -0.019669475 -0.0866147 0.03625267
000240 1c 1f 7f bc fb 48 85 bd 70 9a 8b bd e3 03 a1 bc
       -0.015571382 -0.065080605 -0.06816566 -0.019655174
000250 a9 10 94 3d b4 6d 61 bd 8f 88 86 3d 60 da c1 3d
       0.0722974 -0.05503626 0.06569015 0.0946548
000260 2c 08 b3 bc 89 7e 56 bd 1f b2 fe bc c3 b1 5d 3a
       -0.021854483 -0.052366767 -0.031090794 0.00084569695
000270 46 2c c0 bb 7a 62 0a bd 7b 77 b6 3d 70 0d 50 3d
       -0.005864653 -0.03378532 0.08909508 0.050794065
000280 0f 8f 90 3d 37 e2 50 bd 8b 49 34 be ed c8 54 3d
       0.07058536 -0.050996985 -0.1760618 0.05194943
000290 aa 6d d5 bd 92 76 d1 bc 19 e9 d4 bd 38 ad 13 3d
       -0.104213074 -0.025569234 -0.10396022 0.036053866
0002a0 a8 90 6e 3c fd ee b8 3d b9 54 27 3d 1c b0 4f bc
       0.014560856 0.090299584 0.040852282 -0.012676265
0002b0 a4 40 e7 3c ef fe 6b bb 25 f9 ec bd d2 94 39 3d
       0.028229065 -0.0036010107 -0.11570958 0.04530794
0002c0 08 10 27 3d dd 9f ea 3c 52 c5 be bc db 1e 1b bc
       0.040786773 0.028640682 -0.023287449 -0.009467806
0002d0 87 67 bf bd 9e 60 15 3d 35 e3 ec bc 17 c1 7c 3b
       -0.09345918 0.036469094 -0.028916935 0.003856724
0002e0 eb 16 53 3d 10 c6 22 3e 73 0b e9 bd 02 f6 da 3d
       0.05153553 0.15895867 -0.11379137 0.106914535
0002f0 76 2e 86 3d 7f f7 2d 3d c0 a2 f7 3c f5 90 11 3d
       0.065518305 0.04247236 0.030228972 0.035538632
000300 64 0c 8f 3d 33 20 9d bd 05 fc a2 3c 6c b6 74 3c
       0.06984785 -0.07672157 0.019895563 0.014936071
000310 2f fc 9f bc bf 85 3e 3d 39 1e e7 bc d8 9e 92 3d
       -0.01952943 0.04651427 -0.028212653 0.07159203
000320 67 a2 e1 3d 8c ca 0b 3c 37 46 a7 3c 31 4c 59 bd
       0.11017304 0.008532178 0.020419223 -0.053051177
000330 c2 22 05 3c df 1a 3d bd 40 8b 7b bd 61 c7 91 bc
       0.008125963 -0.046168204 -0.061412096 -0.017795267
000340 3f f1 4b bd 8c d9 89 bd a7 c0 5e bd 61 94 b8 bd
       -0.049790617 -0.06730947 -0.054382946 -0.09012676
000350 39 64 95 bd e0 1e 11 bd 3b e2 a6 bd 67 d5 46 3c
       -0.072945066 -0.035429835 -0.08148619 0.01213584
000360 cb fa b8 bb fe 8f 29 3d 28 89 81 3d e5 fe f1 3d
       -0.005645131 0.041397087 0.063249886 0.118161954
000370 78 f4 2e bd b0 2e 73 bd 4b 4a 5c bd fb 7d 94 bc
       -0.042713612 -0.059370697 -0.05378179 -0.018126478
000380 ca eb ae 3d bb 65 34 bd 4a fb 0f bc ca a6 90 bd
       0.08541067 -0.04404233 -0.008787939 -0.070630625
000390 91 3c 72 3d 15 1b 4c 3c 7d b5 01 3e d4 f0 9a bd
       0.059139792 0.012457629 0.12666889 -0.075654656
0003a0 76 a2 68 bc 31 21 7a 3c ab 56 69 bd 47 dc 14 bd
       -0.01419889 0.0152667025 -0.05696742 -0.036342885
0003b0 c9 97 49 3d ed 14 39 bc 09 82 1f bd 1b 7a e9 3c
       0.04921702 -0.011296493 -0.03894237 0.028500607
0003c0 0c e1 30 bd f8 ae 9b 3d 11 71 be 3b 12 59 a4 3c
       -0.04318337 0.07601732 0.0058118184 0.020062003
0003d0 6e 83 69 3b 06 c5 15 bd ff d4 1b 3d a3 bd 7f 3c
       0.0035631317 -0.03656485 0.038044926 0.015609178
0003e0 3c 74 a0 3d 62 57 54 bd c3 04 c4 3c 9c fb da bc
       0.0783467 -0.051841147 0.023928052 -0.026731305
0003f0 92 9c 5f bd ca fb 22 3e de 7a 8e 3c e3 53 aa 3d
       -0.054592676 0.15916362 0.017392572 0.08316781

encoding_layers.1.bias f4 [256]
000000 5d d7 41 bb 65 8b 5b bc 4a 4c 25 bb f7 ab 55 3c
       -0.002957783 -0.013399933 -0.0025222474 0.013041488
000010 1c e8 6c bc ce 6b b9 ba 11 a0 72 bb 60 c7 4a 3b
       -0.014459636 -0.0014146508 -0.0037021677 0.003094159
000020 0b ac dd 3a ed f3 19 bb 19 06 25 3c a5 17 e9 3b
       0.0016912235 -0.0023491338 0.010072255 0.0071134144
000030 fb 45 d1 3a 58 eb 32 3c cb f0 c0 3a 81 33 01 bc
       0.001596629 0.010920368 0.0014720199 -0.007885815
000040 5d a4 16 bc 54 05 dc bc d1 a7 86 3c ff 89 2b bc
       -0.009194461 -0.02685801 0.016437443 -0.010469913
000050 76 8c 59 3c 0c 94 92 3c 9d c2 74 3b d2 80 a6 3b
       0.013278117 0.01789286 0.0037347444 0.0050812745
000060 6b 56 40 3c ac 8a 02 bc d7 56 93 ba 2e c5 90 3c
       0.011739354 -0.007967632 -0.001124109 0.017672148
000070 81 78 8e 3b 13 9f 80 3c 4e b3 f7 bb c0 19 ea 3c
       0.0043478613 0.015700852 -0.0075592166 0.028576732
000080 b1 ef d0 bc 42 36 4d 3c 45 67 9f 3b d8 ed c6 bb
       -0.025504919 0.012525143 0.0048646056 -0.0060708337
000090 18 d4 ef bb e1 3a c0 bb 13 08 bd 3c 95 64 91 3b
       -0.0073189847 -0.005866394 0.02307514 0.004437039
0000a0 d0 f6 d1 bb 6e 6d 6b bc 87 28 c8 3b ea cc 11 3b
       -0.006407596 -0.014369352 0.006108347 0.0022247382
0000b0 0e ba e2 bb 71 82 ea bb 97 f7 99 3c 8c 2f 0e bb
       -0.006919152 -0.007156663 0.018794818 -0.002169582
0000c0 c6 04 07 3d 0c a7 84 bc 19 66 00 bb 42 7a 20 bb
       0.032963537 -0.016192935 -0.0019592105 -0.0024486934
0000d0 fa 00 0b 39 ea b9 7a bb 09 ee a7 b8 96 69 9d 3b
       0.00013256437 -0.0038257786 -8.007518e-05 0.0048038466
0000e0 3e 27 e6 3b 14 f9 d7 bb 79 e2 03 bc f3 f5 9f bb
       0.007023721 -0.0065909717 -0.008049601 -0.0048816144
0000f0 48 aa 0d bc a1 91 87 bc f6 45 75 bb ec 8f 86 bb
       -0.008646555 -0.016548933 -0.0037425733 -0.0041065123
000100 05 69 7b 3b 1f 40 b7 3b 3a 5f 40 bb ca 80 f0 3b
       0.0038362157 0.0055923606 -0.0029353634 0.0073395716
000110 a3 a8 1d 3c 7a 1d 0f bc 18 94 6c 3b cd 5c 94 3b
       0.009622726 -0.008735055 0.0036099013 0.0045276643
000120 88 49 39 3c dc c7 26 3c 92 7c b3 bb cc 96 60 3a
       0.011309035 0.010179486 -0.0054774964 0.00085673924
000130 b4 ee af bb b0 fd 03 bc 69 b9 15 3c f2 c0 8c bb
       -0.005369032 -0.008056089 0.0091384435 -0.004295462
000140 2b b5 be 3b c2 55 51 3c 68 8f 58 3c 7e 67 58 bb
       0.0058199367 0.012776794 0.013217784 -0.003302067
000150 e8 cc 45 39 68 a6 cd bc ad 7d 3f bc 86 ab 5b bc
       0.00018863718 -0.025103763 -0.011687678 -0.013407594
000160 0f 69 19 bc b4 b8 4c bb 90 51 64 3c dd 17 64 bc
       -0.009363427 -0.0031238021 0.013935462 -0.013921705
000170 c0 8f 01 bc 84 54 bf 3b a9 4c 4b 3c 7b 5b f1 bb
       -0.007907808 0.0058389325 0.012408414 -0.0073656416
000180 3e 64 78 3b d5 bb 27 3c 42 5d b0 3c ad 06 17 3b
       0.0037901546 0.010237654 0.021528844 0.002304475
000190 b1 f1 3c ba 50 bd a4 b9 a4 5e 6c bc c8 ed 16 bd
       -0.00072076457 -0.00031421566 -0.014426861 -0.03684786
0001a0 70 e0 03 bb 4c 41 84 ba af 80 53 b9 fe b8 07 3d
       -0.002012279 -0.0010090261 -0.00020170466 0.033135407
0001b0 84 7a 0f 3b 5f da 13 bc d3 5e 90 3a 33 5a 40 bc
       0.0021893093 -0.009024232 0.0011014588 -0.011740255
0001c0 a8 6d e4 bb 2e ef 32 bc 2d a6 c1 bb 9f 07 39 3a
       -0.00697108 -0.010921283 -0.0059097023 0.00070583256
0001d0 ea b9 6a bb a3 94 32 3c d5 8e 23 bc cd 39 d7 bc
       -0.003581638 0.010899696 -0.009982784 -0.026272679
0001e0 3c 4c f0 3c e8 81 2d 3b bf 39 01 3b dd 89 95 3c
       0.029333226 0.0026475135 0.0019718257 0.018254215
0001f0 23 b3 ca ba e2 b6 07 3c b2 50 42 3c 3a 22 eb ba
       -0.0015464764 0.008283349 0.01186006 -0.0017939277
000200 ab f9 90 3a 2d b0 9d ba 23 34 df bb ab 19 05 3b
       0.0011060735 -0.0012030654 -0.006811635 0.0020309489
000210 b8 93 d1 3a d3 5b f2 bb 48 5f 0f 3b 82 77 e0 bc
       0.0015989458 -0.0073962 0.002187686 -0.027400736
000220 6c 14 2f ba 1f 1e 15 bc de ad 2c bb 10 66 aa bb
       -0.00066787633 -0.00910142 -0.002634875 -0.005200155
000230 1f ac ae 3b 71 8e 94 3c 46 b3 0e 3c 8a 49 20 bb
       0.005330577 0.018134328 0.008709734 -0.0024457895
000240 2e f8 12 bc 77 57 09 3a e0 66 a6 bc 3f ee 2b bc
       -0.008970303 0.00052391685 -0.020312726 -0.010493814
000250 45 22 2e bc e1 73 1f ba 6f 20 f2 bb c1 f9 ec bb
       -0.010628288 -0.0006082636 -0.0073891203 -0.0072319214
000260 5e 1c ac bc 41 fa 91 bc 66 45 dc 3b 3b 1f 00 3c
       -0.02100962 -0.017819526 0.00672214 0.007819946
000270 06 55 91 bc ed c4 e0 bb fa 0c 2b bc ba 21 90 39
       -0.017740738 -0.006859413 -0.010440106 0.0002749095
000280 ef 3f 23 3b cb 77 bd bc 1d 00 ac bc 3d a9 45 3c
       0.0024909934 -0.02312841 -0.020996148 0.012064275
000290 59 80 41 bc 18 9d 6d bc cd f9 83 3b 30 c1 0c bc
       -0.011810386 -0.014502786 0.0040275813 -0.008590981
0002a0 f1 5e 44 bb d3 32 ba 3b e9 5b b3 3a 89 90 19 39
       -0.0029963816 0.0056823283 0.0013684008 0.0001464506
0002b0 a2 10 29 3c eb 41 a6 bc 6f d4 7f bb 44 3c 88 bc
       0.010318907 -0.020295104 -0.0039036532 -0.0166303
0002c0 2b 85 1b 3c 59 f6 aa 3c 43 f3 ff 3b 9f 06 74 3b
       0.009492199 0.02086942 0.0078109815 0.0037235392
0002d0 25 51 14 3a ca 5c 30 bb 12 dd 40 3b 18 31 a9 bc
       0.00056578434 -0.0026910775 0.0029428643 -0.020653293
0002e0 d5 e8 6c bc 08 db 8c bc 3b a8 7c 3c ed e4 9d bb
       -0.014459808 -0.017194286 0.015420969 -0.00481855
0002f0 98 b8 5f 3c 6d 0d 39 3c 0f 16 ca 3b 62 04 86 3b
       0.01365485 0.011294705 0.0061671804 0.004089878
000300 0f 6d 55 3c 83 93 87 bb 59 e1 86 bb b6 ca 00 3b
       0.01302649 -0.004137458 -0.004116219 0.0019652075
000310 34 2c dc ba 08 56 cf 3a 0e 4c ed bc f5 eb 60 bc
       -0.0016797842 0.0015818486 -0.02896693 -0.013728132
000320 da 24 25 ba 1d bb 8b 39 90 76 8c 3a c2 e9 8c bc
       -0.0006299742 0.00026651556 0.0010716487 -0.017201308
000330 2b 4f a0 ba db 52 23 3c 78 18 f8 bb d0 c5 0d 3c
       -0.0012230625 0.009968485 -0.0075712763 0.008653119
000340 1c 3f d2 bc 61 1d 43 bc 80 e2 81 bb 1e 5a 3a 3c
       -0.025664859 -0.01190886 -0.0039637685 0.011374025
000350 ba 99 b1 3c c4 1f ae bc ea 89 70 ba ce b7 72 3c
       0.021679748 -0.021255381 -0.0009175824 0.01481433
000360 59 fe 0b bc 44 6e 86 bc 1f d6 19 bc e1 ce 14 bc
       -0.008544528 -0.01641 -0.009389429 -0.009082527
000370 7f 02 2e 3b 9d 50 19 3c 57 f8 89 bc fe 8c 2a 3c
       0.002655178 0.009357599 -0.01684205 0.010409592
000380 c8 7c 48 3c ba 43 2a 3c 78 60 b4 bc ec 47 81 bc
       0.012236781 0.010392124 -0.022018656 -0.015781365
000390 e0 9e b0 3c 7e c9 a8 3a ee a0 a9 3b db d8 0a bc
       0.021560133 0.0012877432 0.005176655 -0.008474554
0003a0 9b a2 95 bb bf 6f ea ba 61 a3 0a bd 88 48 ec 3a
       -0.004566503 -0.0017886086 -0.033847217 0.0018026987
0003b0 41 57 fc bb 4f dc 76 3c 4d 4a 0f bc 51 e4 07 3c
       -0.007700831 0.015067174 -0.008745742 0.008294181
0003c0 7c 04 44 bb 77 3c a2 39 2f f4 b3 3c d1 01 7e 3b
       -0.00299099 0.00030944098 0.021967022 0.0038758407
0003d0 f1 88 c4 3c ec 06 51 3c 3f af 97 3c b0 87 3e bb
       0.02399108 0.012757998 0.018516181 -0.0029072575
0003e0 68 c8 6e bc 93 f2 f0 bb 82 0b 98 39 bf 5b c4 bb
       -0.014574148 -0.007353136 0.00029000273 -0.0059923823
0003f0 7b 00 59 3b de 9f b3 3b da d6 6e 3a a6 3b 7d 3c
       0.0033111859 0.005481704 0.0009110995 0.015456116

decoding_layers.0.weight f4 [256, 13]
000000 b5 8e a2 bd 3a 54 23 3d 35 62 e2 bd 07 8e 69 bd
       -0.079373755 0.039875247 -0.11053888 -0.057020213
000010 0b 13 63 3d 50 74 ec 3d e5 d3 4b 3d da 00 3a 3e
       0.055438083 0.11545622 0.049762625 0.18164387
000020 74 b3 74 bd 13 d5 27 be ae ed 59 3d 87 68 9e 3d
       -0.059741452 -0.16389875 0.053205185 0.07734781
000030 05 5e bc bc c8 c8 ae 3d e9 89 e4 3c 48 1f 9e bc
       -0.02299405 0.0853439 0.027897792 -0.019302025
000040 0f e3 c8 3d 8e e8 92 3d 73 56 f4 3c 11 00 fe bd
       0.09808933 0.071732625 0.029826378 -0.124023564
000050 72 5d b0 3d 13 b5 33 bd 50 51 8c bc 14 66 48 3c
       0.08611573 -0.043873858 -0.017128617 0.012231369
000060 52 a8 ca 3d 2c ee 2f 3c 20 3f 00 3e c1 1b cf bd
       0.09895386 0.010737937 0.1252408 -0.101127155
000070 e5 44 0d bd 44 5e c7 bb 9f 0d 2b bc 68 b1 dd bd
       -0.03448953 -0.0060842354 -0.010440259 -0.10824853
000080 db d2 33 3c 07 8a 75 be 78 52 90 bc c6 4e f1 bd
       0.010975565 -0.23978435 -0.01761745 -0.11782603
000090 56 02 b7 3d 56 14 e1 3d ac a1 9f 3d fb c0 20 3e
       0.089359924 0.10990207 0.07794508 0.15698616
0000a0 26 1b cc 3c 28 f1 49 3d 54 0a 0e bd 89 7e e9 3c
       0.02491529 0.04930225 -0.03467782 0.02850272
0000b0 e8 a9 27 bd 47 b9 04 3c 8a 73 2a 3e e0 56 db 3c
       -0.04093352 0.008100814 0.16645637 0.026774824
0000c0 e9 ca b5 3d 70 02 e7 3d 05 18 14 bc 7e f9 dd 3c
       0.08876593 0.11279762 -0.00903893 0.027096506
0000d0 b3 9e 39 bc f3 11 b0 bc 8d 71 54 3d 75 53 ff 3c
       -0.011329341 -0.021492934 0.051866103 0.031167725
0000e0 ac 94 4c 3c 31 37 a4 3c f8 01 b1 bd cd e3 0d 3d
       0.012486618 0.020045849 -0.08642954 0.034641076
0000f0 11 d1 a1 3d f3 5a 14 3d 6d 98 70 3d 4a 61 2d 3e
       0.079012044 0.03621955 0.058739115 0.16931644
000100 77 8e 1b bc c1 8d 84 3e fa 52 83 3c 28 52 57 3c
       -0.0094944155 0.258894 0.016030777 0.013142146
000110 ad de f0 bc a2 f5 ba bd aa 41 13 3d 0d 3d c5 3d
       -0.029403055 -0.09128882 0.035951294 0.09630785
000120 e8 39 87 be 01 e9 e9 bc 67 07 a8 3d a4 6a 65 3d
       -0.26411366 -0.028553488 0.08204537 0.056009904
000130 d5 1e e6 bd 4b 4e d5 3c 3b 4b 88 bd d2 f1 5b bc
       -0.112363495 0.02603831 -0.06654974 -0.013424354
000140 63 08 4b bd b3 30 07 3d f6 a9 fa 3b 74 73 4c bc
       -0.049568545 0.033005428 0.0076496555 -0.012478698
000150 c2 7c b5 3c 7c ab c4 3d c5 08 d6 bd 2c ed f3 bd
       0.022154216 0.096030205 -0.104508914 -0.11910471
000160 b8 61 bf bd cb d3 e4 3d 86 0e 47 bc 8d 1b a8 bd
       -0.0934481 0.11173209 -0.012149459 -0.0820838
000170 c4 f3 50 bc f0 72 00 be db 80 8a 3c e4 6b 8d 3d
       -0.012753431 -0.12543845 0.016907146 0.06905344
000180 fb 90 ed 3d 80 44 07 be 33 f2 93 3c e8 66 d6 bc
       0.115999185 -0.13209724 0.018059826 -0.026172116
000190 83 f6 42 3d ce 8c 96 bc ee d1 83 bc ee 4f 82 3d
       0.047598373 -0.018377688 -0.016091313 0.06362902
0001a0 cc 7d 2d bc 94 2c 64 bc 6a eb 2b 3d 62 b2 af 3c
       -0.010589074 -0.013926644 0.041972555 0.021447364
0001b0 5b 5a 68 bd a5 5e 0b 3d f0 b9 3f 3d e4 15 92 3d
       -0.056726795 0.034025807 0.046808183 0.071330816
0001c0 e1 73 05 be a5 b9 3e bd f9 16 0c bc d2 89 fc 3d
       -0.13032486 -0.046563763 -0.008550399 0.12330975
0001d0 18 c4 dc bc 05 3f 01 bc a1 6e 96 bd 72 ae 8e 3d
       -0.026948974 -0.00788856 -0.073453195 0.069668666
0001e0 c6 5b 62 bc 1f 51 3c bd 62 a9 1a be 02 e5 2c bd
       -0.013815826 -0.0459758 -0.15103677 -0.042210586
0001f0 e8 a9 0f 3d f4 3f de 3c 64 2e b4 bb 39 0b 4d 3d
       0.035074145 0.027130105 -0.0054986943 0.05005953
000200 f0 80 1d be c3 7e 8e bd 5b 2d dc 3d 6f 5f 5a bd
       -0.15381217 -0.06957772 0.10750838 -0.05331367
000210 79 f2 6e bc 17 8a f8 3c 8c 71 86 bd 1a e5 5c 3e
       -0.014584177 0.030339284 -0.06564626 0.2157177
000220 fc b7 7f 3d d1 03 b7 bc d9 e1 e8 3c 32 1d 92 3c
       0.06243132 -0.022340687 0.028428005 0.017836187
000230 8d 31 f6 3c fa 4c d7 3a f2 6c 81 3b 05 b6 5e 3d
       0.030052925 0.0016426139 0.003949755 0.054372806
000240 ef 44 53 3c 31 8a 01 3e f6 03 33 bb d8 d2 65 bc
       0.012894853 0.12650372 -0.0027315593 -0.01402732
000250 2c f8 67 3e d5 a9 21 3b e9 88 dc bc 64 b3 b1 bd
       0.22653264 0.0024667878 -0.026920753 -0.08676794
000260 53 39 48 3d a2 44 f9 3d 01 94 d6 bd 62 e5 aa bc
       0.048882794 0.12171294 -0.10477448 -0.020861331
000270 99 ed 02 3d ce 64 85 bd 69 c3 7f bd 7f 03 4e 3d
       0.031964872 -0.065133676 -0.062442217 0.050296303
000280 fd 1b 0f 3e 55 1e c0 bc b3 e6 09 3d 43 d3 24 be
       0.1397552 -0.023451963 0.033667278 -0.16096215
000290 51 94 9a bc 06 dc d6 bd f9 d7 04 bd ab e4 1c bc
       -0.01886955 -0.10491185 -0.03243253 -0.009576003
0002a0 99 9d a6 3c 88 b1 fe 3c 00 20 8f bb 26 71 48 3b
       0.02033882 0.031090513 -0.0043678284 0.003058502
0002b0 2c 18 2f bd ec ec da 3d b8 80 ec 3d 01 e3 b1 3c
       -0.04274766 0.106897205 0.11547989 0.02171469
0002c0 bf d0 3c 3d 60 00 93 3c e5 41 72 bd f5 ce e1 3d
       0.046097513 0.017944515 -0.059144873 0.11025802
0002d0 0d 67 16 bd ec ea ef 3c ef f0 de bc 10 63 2a bd
       -0.03671937 0.029286824 -0.027214495 -0.04159838
0002e0 18 95 9a 3d 39 25 e5 3d 8f 84 99 3c 41 8c 07 3e
       0.075479686 0.1118874 0.018739967 0.13237096
0002f0 61 eb 27 bd f3 70 9c 3d 25 9e aa 3d a0 ab b5 bc
       -0.04099596 0.07638731 0.08330945 -0.022176564
000300 9a 7e 26 bb 56 6b 33 3e e7 ef c2 bb e2 63 26 bd
       -0.002540505 0.17521414 -0.0059490087 -0.0406226
000310 70 14 b4 3c 31 ed 94 3c 3f af 86 3c 08 80 10 3d
       0.021982402 0.018179508 0.016440986 0.03527835
000320 a7 3f 7e bd f2 6d 49 3d 7b 63 c6 3c 4d f3 d5 bd
       -0.062072422 0.049177118 0.024217358 -0.104467966
000330 6c e0 61 3c 02 e0 8a 3c ce 55 02 3e e1 ad 90 bc
       0.0137864165 0.016952518 0.12728044 -0.017661037
000340 a1 60 e2 3d 04 13 36 bc 01 44 d8 bd b6 98 de b9
       0.11053587 -0.011112932 -0.10559846 -0.00042456918
000350 d5 67 a8 3d 49 18 f0 bd 37 c3 b5 bb 51 1a 5f 3a
       0.082229294 -0.11723382 -0.005546953 0.00085106964
000360 a9 2c 5e bd c1 43 6c 3d 23 c2 0e bd 22 4a f7 3c
       -0.05424181 0.057681803 -0.034853112 0.030186716
000370 4e 63 c3 3c 64 82 fe bd d8 a3 96 bc 98 fa 35 3d
       0.023851063 -0.12427214 -0.018388674 0.044428438
000380 43 b0 40 bd e2 83 2d 3d 19 93 e6 3d d7 9b 32 bd
       -0.047043096 0.0423621 0.112585254 -0.04360565
000390 ab f5 83 3d d3 4b 19 3d 4d d4 9a 3d 96 d1 48 bd
       0.06443342 0.037425827 0.075600244 -0.049028
0003a0 30 5a ad 3d 60 b5 92 bc 15 cb b6 bb 1a 0c 67 3c
       0.084644675 -0.017908752 -0.0055784085 0.014102006
0003b0 d7 84 e2 3c b4 cd d9 bc c3 69 b9 ba 6c 24 fc bd
       0.027651234 -0.026587345 -0.0014145899 -0.123116344
0003c0 f0 8e 0f bd 5f 96 2c bc 25 93 e2 bc 53 1a ca bd
       -0.035048425 -0.010533898 -0.027658055 -0.09868302
0003d0 93 5c 1e 3e c5 54 1e 3d e4 74 12 3d ac 09 df 3c
       0.15465002 0.03865506 0.035756007 0.027226292
0003e0 18 19 3e bd c0 2c 9a 3d 2d 19 77 3c d4 32 84 3a
       -0.04641065 0.07528067 0.015081686 0.0010085949
0003f0 b7 22 dc 3d c7 ef 34 bd ab 73 13 3e 90 30 20 bd
       0.10748809 -0.044173982 0.14399593 -0.039108813

decoding_layers.0.bias f4 [256]
000000 49 74 5b bd 5c fa aa 3d a9 22 04 3e be 20 1d 3e
       -0.053577695 0.083485335 0.12903847 0.15344521
000010 7b cb 4e be d8 e4 8b bd 13 af 0e 3e e4 d9 21 be
       -0.20194809 -0.06830758 0.13933973 -0.15805775
000020 57 97 e2 3d 36 d3 84 3d fd 75 45 be 86 9d 84 bc
       0.11064022 0.06485598 -0.1928329 -0.016188394
000030 a5 fa 69 3d b0 4d f9 bd 28 9f e1 bc 49 58 2f 3e
       0.0571238 -0.12173021 -0.027541712 0.17123522
000040 e0 c1 f0 3d a6 27 eb bd 4e d3 f4 ba 5c 7f 3b be
       0.11755729 -0.11482172 -0.0018678696 -0.18310302
000050 5b 24 2e be 2b 21 93 3d d3 57 2f 3c 26 88 40 be
       -0.17006056 0.07184061 0.010702091 -0.18801937
000060 01 46 17 bc 5c 34 94 bc cb 91 98 3d 3a 4c cc bd
       -0.009232999 -0.018091373 0.07449683 -0.099754766
000070 10 cb 0d be aa a8 a4 3d 00 39 b3 bd 73 43 5a 3e
       -0.13846993 0.080399826 -0.08751106 0.21314792
000080 bc cd 13 3e 66 4b 3f be 6e e8 86 3e 90 34 c7 bd
       0.1443395 -0.18681106 0.26349205 -0.097268224
000090 f5 8f f0 bd 3f 69 40 be 7a a9 c6 3c 9b 3a ea 3d
       -0.117462076 -0.18790148 0.024250735 0.11436959
0000a0 3b ae cb 3d 81 e2 11 3e 6c d0 21 be e9 e4 f6 bc
       0.09945341 0.1424656 -0.15802163 -0.03013845
0000b0 2a 3b 26 be a2 d3 ff 3d 9e 3c 8a 3d 07 d1 39 be
       -0.16233507 0.12491538 0.06749843 -0.18146144
0000c0 6f c6 13 3d 61 32 89 bd 37 dc 38 3d 64 57 0f be
       0.036077913 -0.06699062 0.04513189 -0.1399818
0000d0 b6 3b 15 be 3c e0 17 3a 37 fe 10 be ed 51 2c be
       -0.14573559 0.00057936064 -0.14159475 -0.16828127
0000e0 7a bb ff 3d 0d eb 2a 3e 64 10 a8 bc 4d 53 a2 bc
       0.1248693 0.16691227 -0.020515628 -0.019815112
0000f0 52 93 1f bd 1b bc 88 3b fa fb 12 3e 90 cb 7e bd
       -0.038958855 0.0041728145 0.14353934 -0.06220585
000100 d0 59 e6 3d cf 60 a1 3d 33 e3 47 be d2 87 1c 3d
       0.11247599 0.07879793 -0.19520263 0.038215466
000110 b7 18 47 be 15 27 78 be 1b 3c ef bd ae e4 54 be
       -0.19443022 -0.24233659 -0.11681386 -0.2079036
000120 66 78 43 3e 92 45 ff bd 1e 15 17 be a3 69 ff 3d
       0.19088897 -0.12464441 -0.1475415 0.124713205
000130 a7 f6 11 be f2 07 a6 bd 62 31 55 bc ad 82 9c 3d
       -0.14254247 -0.08106984 -0.013012262 0.07642112
000140 44 4a 2c 3e 14 73 f7 bd 5a 7c f7 3d 42 a2 3a 3e
       0.16825205 -0.12082496 0.12084265 0.18225959
000150 e6 24 d3 bb ac 56 2d be 19 88 c9 bd 2b 04 e3 bd
       -0.0064436076 -0.16927594 -0.09840412 -0.11084779
000160 df 38 31 3e 25 31 6d bd 9b 77 e5 3d 38 06 13 3e
       0.17306851 -0.057908196 0.112044536 0.14357841
000170 91 26 13 3e 4e 0a 3c 3e e9 46 02 3e 98 7a ae 3d
       0.1437018 0.18363306 0.12722363 0.08519477
000180 cd 73 05 be 7f 9f 21 3e a0 df 30 3c 1a 5a b1 3d
       -0.13032456 0.15783499 0.010795504 0.08659764
000190 73 d4 23 be fb ed a9 bd 80 91 34 3e 99 ac 28 be
       -0.15999012 -0.08297344 0.17633629 -0.16472091
0001a0 53 f4 43 be c4 05 dc 3c 7f 87 5a be 64 23 11 bd
       -0.19136171 0.026858218 -0.2134075 -0.03543414
0001b0 4b 53 03 bd 94 49 59 3e e1 bf 29 be 0c 5d 74 be
       -0.032061856 0.21219474 -0.16577102 -0.2386362
0001c0 f5 59 a9 3d c3 18 ea 3d e3 e2 0d 3b e6 ca 20 3e
       0.08269111 0.11430504 0.0021650128 0.157024
0001d0 22 e3 71 3e 3f 1a 2b be fb a6 bc 3d e0 69 17 be
       0.236218 -0.16709231 0.092115365 -0.14786482
0001e0 d0 32 ed 3c 39 f7 07 be cc 0b 87 bd 68 20 24 3e
       0.028954893 -0.13277902 -0.06594047 0.16027987
0001f0 84 2c 0b be 89 46 31 3e b7 ff d6 3d bb 61 4a be
       -0.135912 0.17312063 0.104979925 -0.19763844
000200 e4 5d 83 be b9 c0 47 3c 5f 8a 06 3d c9 a7 16 3e
       -0.2565757 0.012191945 0.032846805 0.14712442
000210 a6 06 d2 bd 6a ae 0c 3e 1f a3 1c 3e 7a e3 00 be
       -0.10255174 0.13738409 0.15296601 -0.12586775
000220 f6 e6 6a be d6 77 02 3d 64 35 d4 3d 3f 15 20 3e
       -0.22939667 0.031852566 0.10361746 0.15633105
000230 68 c8 60 3e f8 cc a7 ba 3b 6e 5c be 5a 6b 96 bd
       0.21951449 -0.0012802174 -0.21526425 -0.073446944
000240 10 c0 33 3e ca 2c bb bd b8 73 e4 bd 8e d0 a8 bd
       0.17553735 -0.09139402 -0.11154884 -0.08242904
000250 52 55 3e 3e 5a c9 01 be ed 6d 39 be e9 64 61 be
       0.18587235 -0.12674466 -0.1810834 -0.2201115
000260 1d 17 fb 3d 91 4c 38 be 32 77 ca 3d 86 cf ca bd
       0.12260268 -0.17997958 0.09886016 -0.09902863
000270 f0 c7 49 3e ba bb e9 bd 00 0d 46 bd d1 9e 66 be
       0.19705176 -0.11412759 -0.04835224 -0.22521521
000280 49 0f 55 ba 92 82 88 3d 05 27 86 be 0c a7 54 3e
       -0.0008127583 0.06665529 -0.26201645 0.20766848
000290 7b 07 a0 3c 61 f7 07 3c 35 f8 08 3c bc 3d 00 be
       0.019534817 0.008298726 0.008359958 -0.1252355
0002a0 fe 66 4a bc 25 ab e0 bd 35 b4 1b be 00 3e 14 3e
       -0.012353657 -0.10970143 -0.15205462 0.14476776
0002b0 ee ca bd 3d ee 0b 8a 3e 28 35 2f be b4 89 12 be
       0.092672214 0.26962227 -0.17110121 -0.14310342
0002c0 07 05 dd bd 79 25 4f bc 96 a5 13 be 96 6f c1 bd
       -0.107919745 -0.0126432115 -0.14418635 -0.094451115
0002d0 85 a4 00 be 2f 17 5e 3e 60 af 00 3e a0 b3 ec 3d
       -0.12562759 0.21688531 0.125669 0.11557698
0002e0 77 43 39 be de 68 36 3e ae 5c be 3d bc f0 19 bd
       -0.18092142 0.17813441 0.09295021 -0.037583098
0002f0 01 fe c1 3d 8e 0e 5b 3e 94 16 4d 3e e8 71 8e 3d
       0.094722755 0.21392271 0.20028144 0.0695532
000300 ad 7c 67 bd 44 b0 4a bd b7 36 34 3e f6 84 7b 3e
       -0.056515384 -0.049484506 0.17598997 0.2456244
000310 8d 6c 55 3d 7b fe 83 3d 88 4a 2c 3e 54 5f 59 be
       0.052105475 0.06445023 0.16825306 -0.21227771
000320 04 00 78 3d a5 ce 11 be 9e 38 73 3e 8f f7 93 3d
       0.06054689 -0.14238985 0.23752066 0.072249524
000330 b4 ac 05 3d 4a 2e de 3c 5c b5 d3 bd c9 7d 8f 3d
       0.032635406 0.027121682 -0.10337326 0.070064135
000340 8c 00 ac bd 69 45 17 3e 2d fc 4a 3c 06 44 2a 3e
       -0.08398542 0.14772572 0.012389225 0.16627511
000350 6a 07 32 3d 93 c3 44 bd 32 a1 9e 3c 22 d3 0a 3e
       0.0434641 -0.048038077 0.019363973 0.13557103
000360 39 dc 76 3d 9d c6 20 be a6 8b 0b 3e c5 d9 79 be
       0.060268614 -0.15700765 0.1362749 -0.24399479
000370 f4 01 6e be 1f 15 23 3e 55 13 f2 3d 60 b0 5b 3c
       -0.23242933 0.15926026 0.118200935 0.01340875
000380 9e 4c 4f 3e de 99 d1 3c b8 cf ae bd 7f b0 e3 bd
       0.20244071 0.025586065 -0.08535713 -0.11117648
000390 b8 63 0f bd 4c f6 13 3e 46 8a ff 3b 14 ab 09 3e
       -0.03500721 0.14449424 0.007798466 0.13444167
0003a0 0c 74 d4 bd c6 cb 4e be ed 32 8c 3d 9a 55 28 3e
       -0.10373697 -0.20194921 0.06845651 0.16438904
0003b0 34 4b 12 be 1b 85 3e be f2 b9 35 3d 25 81 28 bd
       -0.142865 -0.18605463 0.044366784 -0.041138787
0003c0 12 c8 c5 bd 48 fb ee bd b6 2e 0d be 9f 50 92 bd
       -0.09657301 -0.11669022 -0.1378735 -0.071442835
0003d0 62 7d 17 be 0f 40 d8 3d 77 ca 14 be 4a c6 1b 3c
       -0.14793923 0.10559093 -0.14530359 0.009507725
0003e0 10 67 9c 3c f1 66 2f 3e 9c d9 8f bd 6b dd 14 3c
       0.019092113 0.17129113 -0.070239276 0.009085993
0003f0 ae 61 5f be 4b bc 39 be 14 3f ca bd a0 16 ee bc
       -0.21814606 -0.18138234 -0.098753124 -0.029063523

decoding_layers.1.weight f4 [256, 256]
000000 53 99 03 3c 88 8e ea bc 66 40 09 be 79 9e de bc
       0.008032161 -0.028632417 -0.13403472 -0.027175175
000010 26 68 ff 3d a2 36 66 3d 02 f7 04 3e 9a be 19 3d
       0.124710366 0.056204446 0.12984851 0.037535287
000020 61 87 56 bc bc 57 9d 3c de 0e c2 3d 4c 03 bb 3d
       -0.0130938 0.019206874 0.09475492 0.09131488
000030 93 5e 26 be 7d 19 01 3e 46 ce 48 3d fd 8d 6a 3b
       -0.16247015 0.1260738 0.049024843 0.0035790198
000040 77 43 89 bd 85 7c 12 3e b1 5a 07 3d c4 fc 01 3d
       -0.06702321 0.14305313 0.033045474 0.031735197
000050 7d 96 17 3d 09 eb 84 bd 32 92 43 3d 96 66 8d bd
       0.03700875 -0.06490142 0.047746845 -0.06904332
000060 66 70 da 3d 40 00 bd ba 8a 8b 3a be 42 9b 28 3c
       0.106659696 -0.001441963 -0.18217292 0.010290923
000070 76 2c 8c 3d df 12 8a bd c2 77 7b 3c 5a 64 d8 bd
       0.06844418 -0.067418806 0.015348377 -0.105660155
000080 60 e6 8e 3c 8a a1 27 3d 93 25 b5 bd 05 a6 b6 bc
       0.017443836 0.04092554 -0.08845057 -0.022295961
000090 9a c6 b2 3d f5 15 35 3d dc dd fb 3c fd 87 4d bd
       0.087292865 0.044210393 0.03074544 -0.050178517
0000a0 b0 91 5a bd 3b f0 d2 bc bc 9b fa 3c 3e 22 e4 bd
       -0.053361595 -0.025749316 0.030591838 -0.11139344
0000b0 9e 29 09 bc b2 14 4a 3d 24 04 0f bc 35 7d 0d 3e
       -0.008371739 0.049336143 -0.008729015 0.13817294
0000c0 10 30 e8 bd a4 69 a5 3a 83 c2 22 3d f9 24 3c bc
       -0.11337292 0.0012619984 0.039736282 -0.011483424
0000d0 cf 7c 29 3e 1d 56 43 3d c1 b6 6e 3b 76 31 00 3e
       0.16551517 0.047689546 0.0036424848 0.12518868
0000e0 7d 02 af bc b5 93 ee 3b 49 28 e1 3d 98 3f 99 3b
       -0.021363491 0.0072807916 0.10994012 0.0046767704
0000f0 6b d5 b1 bd f7 13 c9 bd bc 5a 88 bd 0f 5e 8d bd
       -0.08683284 -0.09818261 -0.06657931 -0.06902706
000100 7a 32 6e bd 95 69 d8 3c 55 15 e0 3d f5 b5 59 ba
       -0.058153607 0.026417533 0.10941569 -0.0008305007
000110 0d 35 76 3a 20 e4 1e bc 7c 2b c8 3d 21 1e 42 3e
       0.00093920605 -0.009697944 0.09773919 0.18956806
000120 4e b5 a0 3c 0a 23 7c bc f4 9b fa 3d 75 25 b7 bc
       0.019617703 -0.015389213 0.12236777 -0.022356728
000130 5c cd df 3d c8 e4 68 bd af 6a 7d 3c 2c 85 03 be
       0.10927841 -0.056858808 0.01546733 -0.1284377
000140 7b 37 e3 bd 74 fc 56 3d 66 4a 7b bc f0 d6 8a bd
       -0.110945664 0.05248685 -0.015337562 -0.06779277
000150 18 18 c2 3d 78 1e 49 3e 60 32 82 3d d8 33 4c bd
       0.09477252 0.19640529 0.063572645 -0.04985413
000160 88 31 c2 bc aa 79 2b 3d e0 6a 5e bd 02 f9 99 bd
       -0.023705259 0.041864075 -0.054301143 -0.075181976
000170 c7 18 48 be bf f9 fa bd ec 78 20 bd db 35 6f bd
       -0.19540702 -0.122546665 -0.03917782 -0.05840097
000180 5f 8f e4 bd 26 96 72 bd 3f 70 ac bc 3f 61 51 3d
       -0.11160158 -0.059225224 -0.021049617 0.05111813
000190 a0 3b 89 bd 4b 78 32 3e 0b f3 0c bd 02 44 94 3d
       -0.06700826 0.174287 -0.03441147 0.07239534
0001a0 97 ec b1 3c 70 1b 81 3d 12 28 8a 3e fe 0b d5 3d
       0.02171926 0.063040614 0.26983696 0.10402678
0001b0 60 e3 ed bc 7b c9 53 3d 36 11 ae 3d 1e 73 c0 3c
       -0.029039085 0.05170582 0.084993765 0.023492392
0001c0 7d 9c b4 bd 02 b2 29 bd 86 1b 2d bd e8 d0 0a bd
       -0.0881891 -0.041429527 -0.042262577 -0.033890635
0001d0 b6 1b 15 3d 96 d8 01 3d 76 19 7b 3b 5e ac 55 3d
       0.03640338 0.031700693 0.0038314736 0.052166335
0001e0 f4 46 9b bd d8 b8 53 bd 5f c1 de bd 78 b2 c4 3c
       -0.075818926 -0.051689953 -0.10876726 0.024010882
0001f0 e8 c2 88 3d 8a 55 2a bd 39 71 61 bc 16 ce 97 bd
       0.066778004 -0.041585483 -0.013759905 -0.07412355
000200 b4 42 ec 3d 29 d9 d3 bd 1e 87 3d bd 65 f6 e1 bd
       0.1153616 -0.103441544 -0.046271436 -0.11033324
000210 fa b2 29 3d c7 c3 94 bd 91 f5 ef bb ad 24 7d 3d
       0.04143045 -0.07263904 -0.007322975 0.061802555
000220 3e 38 59 3d 38 7e 0f bd 1d 5a c7 bc c7 12 d6 bd
       0.053032152 -0.03503248 -0.024334962 -0.104528
000230 8b e3 20 bc 81 52 40 39 a7 5c 05 bd f2 23 42 3d
       -0.0098198755 0.00018341282 -0.032559063 0.04739756
000240 73 60 ca bc a9 e8 c9 3c dc e1 e8 bc ef f8 fb bb
       -0.024704194 0.024647074 -0.02842801 -0.0076895873
000250 57 b6 00 be d8 e4 70 bd 4d eb b6 bd ef cd 28 3e
       -0.12569557 -0.058811992 -0.08931599 0.16484807
000260 aa 05 9f bd 48 7e 1a 3d 4a f6 a6 3b ed 4b f6 3b
       -0.07764752 0.037718087 0.005095278 0.0075163753
000270 67 6b ad 3a a9 68 b5 3d 6c 2e 28 3b 18 a6 c5 3d
       0.0013230861 0.08857853 0.0025662435 0.096508205
000280 9a e1 00 3e 82 1d 14 be fe 02 a1 3d 7c 76 2e bb
       0.1258606 -0.14464381 0.07861899 -0.0026620915
000290 57 07 5d bd d7 a6 46 bc f6 c0 de bd b0 48 1c 3e
       -0.053962078 -0.012124739 -0.10876648 0.15262103
0002a0 d0 29 f6 bc 63 47 81 3d 5f e1 91 3d c2 25 1f be
       -0.030049235 0.06312444 0.07123064 -0.15541747
0002b0 65 74 23 be cb 57 8a bd db 1a b1 3c 54 d5 ec 3d
       -0.1596237 -0.067550264 0.021619251 0.115641266
0002c0 49 69 bd 3c 2b 75 14 be a9 eb 16 3e 95 85 ca bc
       0.023121493 -0.14497821 0.14738335 -0.0247219
0002d0 36 40 1d 3e d1 63 13 3b c8 d8 cf 3b df c2 11 bd
       0.15356526 0.0022489915 0.006342981 -0.035586234
0002e0 6c 5c 33 3d 48 f6 27 3d 1e 10 92 bd 1c 05 37 3d
       0.043789312 0.041006356 -0.0713198 0.044682607
0002f0 ee 4f 16 be 52 ae 23 3b 3e a4 f0 bd 6a e0 14 be
       -0.14678928 0.002497573 -0.11750077 -0.14538732
000300 17 28 aa 3d 72 e5 51 3d 53 27 0f be 69 56 96 bd
       0.08308428 0.051244207 -0.13979845 -0.073407
000310 d1 84 f2 bd f8 bb 87 bd dd 28 1d be e3 83 5a 3d
       -0.11841739 -0.06627649 -0.1534762 0.053348433
000320 79 41 8a bc d8 04 a3 bd 98 c8 bc bc 49 0b b0 3d
       -0.016876923 -0.07959908 -0.02304487 0.085959025
000330 ca e0 ba 3b b8 f7 91 3d ed c6 13 bd 8d a3 b9 bd
       0.0057030665 0.07127327 -0.036078382 -0.09064398
000340 df 58 07 3c bd 6e 88 bd 4c ef 8e 3d 1e 9b a7 bd
       0.008260935 -0.06661747 0.06979236 -0.08183883
000350 84 0b e2 bd 0f 3e 0b 3d 50 2b 91 3d b3 54 9a 3d
       -0.11037353 0.03399473 0.07088339 0.07535686
000360 a4 df fc 3c bb 9c 58 bc e1 2c ca 3c f6 ca 31 3d
       0.030868359 -0.013220961 0.024679603 0.04340645
000370 d3 1d f1 3d 45 9c 81 bd d0 35 ba bc 19 0a 2d 3d
       0.11773267 -0.06328634 -0.022730738 0.042245958
000380 22 a0 0c be e6 ca 53 3d 69 4c 03 3e 8b 91 e6 bb
       -0.13732961 0.05170717 0.12822117 -0.007036393
000390 90 d1 d9 bb b0 cd 11 bc 25 08 a7 3b 48 6f 38 bd
       -0.0066472962 -0.008899137 0.0050974065 -0.045028
0003a0 1e 84 5c bb 54 39 46 3d 33 4a b2 bd db 1d 28 be
       -0.0033648084 0.048394516 -0.08705559 -0.16417639
0003b0 f5 82 ad 3d d2 77 b1 3d b8 c9 15 bd 7e 7e 20 3d
       0.08472244 0.08665432 -0.036569327 0.039183132
0003c0 db 1c 7c bd 53 e5 df 3d b8 fa 35 3d 85 79 c3 bc
       -0.061550956 0.10932412 0.044428557 -0.023861656
0003d0 9c 81 a1 bd 76 cb 0d bd f1 bc b2 bc 0c 98 1a 3e
       -0.07886049 -0.034617864 -0.02181861 0.15097064
0003e0 df fd 33 3d 2f cd ed bd 99 4f 59 3c 1b a0 45 bd
       0.043943282 -0.11611401 0.0132636065 -0.04824839
0003f0 1d 0a 37 bd 6c dd b5 bc 0e 40 c7 3d eb 77 6c 3d
       -0.04468738 -0.022200309 0.09729014 0.05773155
